retracking-by-prediction/saved_models/trajnet_train_vlstm_o4_p12.pt (torch_old, 288253 bytes, 14 tensors)

weight_ih_l0 f4 [256, 64]
0.09445809 -0.05042806 -0.09398053 0.12147528 0.013066731 0.053953875 -0.15164481 -0.00012889589
-0.10003545 0.06300546 0.11359258 0.030852798 0.09554842 -0.0670616 -0.11243768 -0.10591783
-0.11896427 -0.0112938965 -0.07514709 -0.076189496 0.12883872 0.08308123 0.01056023 -0.11692439
0.06676119 -0.06579801 0.07924948 -0.05152579 -0.14638075 0.14410432 0.047498252 0.0063820756
-0.11256726 -0.05461483 -0.016799886 -0.13160154 -0.036454145 0.006069019 -0.004033205 -0.03644223
0.08058999 -0.07117937 0.07608229 -0.0755704 0.15031022 0.07539718 0.055758677 0.062194537
-0.12175548 0.049989875 -0.029096477 0.091090985 0.08926061 0.09840966 -0.08455227 0.048943665
-0.09627371 -0.08132846 0.10235977 0.06737547 0.051086847 0.013722628 -0.09271178 0.05149177
0.13327299 0.09785841 0.10814519 -0.0003897439 -0.07979813 -0.07440282 0.13018008 0.0052453536
0.01906441 0.0144649735 0.1242605 -0.018772267 -0.048951548 0.03047444 0.10435398 -0.0017184429
-0.038415473 0.018359363 -0.049696237 -0.032147333 0.0610001 -0.002343562 0.08159281 0.034693163
0.051362038 -0.05514562 -0.055496167 -0.06388252 -0.15035892 0.07500099 -0.0790433 0.0045409016
-0.11024196 -0.014515541 0.10660158 0.06857721 0.09255223 0.08391848 -0.061981514 -0.17340003
-0.006766545 0.07974944 -0.14527637 -0.04011169 0.16135713 0.014513043 0.044553187 -0.016348045
0.0292923 -0.04079406 0.023587266 0.038793776 -0.112039536 0.06878062 -0.08062387 0.10742857
-0.008814724 0.09037749 0.027199376 0.12940134 -0.13993816 -0.104929574 0.011644161 0.09065788
-0.022111721 -0.055334605 -0.0054451744 0.051150944 0.08704984 -0.15109012 0.11274779 -0.007487671
-0.054560184 0.018832447 0.13095662 0.028869092 -0.028019391 0.16439357 -0.0015444672 0.005302491
-0.047122627 0.07880121 -0.113371104 -0.08023609 0.026788771 -0.18946846 0.03708816 -0.09511069
-0.1292105 -0.03086502 -0.0016435356 0.06010541 -0.16192637 0.10222057 -0.12073185 -0.18696752
-0.13949703 0.03698592 -0.011828399 0.024236688 0.07127044 0.08422842 0.03771629 -0.16181825
0.11062312 0.15652674 0.030460067 0.04452804 0.008180612 -0.08843417 -0.18530555 0.0059755496
0.0067339125 -0.14106475 -0.08485323 -0.07851738 -0.010986091 -0.15761127 -0.08698857 -0.031553168
0.13737045 -0.07343866 -0.045216963 0.1389356 -0.06502012 -0.004771347 -0.08731028 0.16125312
-0.04266741 -0.008294823 0.071941905 -0.033933304 0.07656434 0.054967064 0.0803544 0.020324068
-0.05279691 0.04288554 0.015018245 0.047364615 -0.10381658 -0.042113125 0.11355482 0.025832888
0.016249815 0.09435559 -0.074666716 0.04651797 -0.06086666 -0.11727216 -0.013057371 0.07065692
0.06628348 -0.022735078 0.07402896 0.08043585 0.06194417 -0.15183008 0.02479787 -0.117045596
-0.038656194 -0.06964424 0.09767357 0.08143085 0.04769711 0.08470703 0.063802555 0.015846957
0.07098649 -0.04368213 -0.17541392 -0.1171554 -0.013865895 -0.00048653854 -0.039045285 0.071011394
-0.12802187 -0.06594764 -0.07715547 0.14409861 0.0046050325 -0.041423135 0.025643112 0.11417093
0.14396964 0.0145654995 -0.008261903 0.087878965 -0.15085918 -0.10011725 0.046718255 0.0057210317
00000000: 3e73 c13d a78d 4ebd dd78 c0bd 08c8 f83d
00000010: d815 563c bdfe 5c3d c748 1bbe 3a28 07b9
00000020: 63df ccbd 0209 813d 3aa3 e83d 02bf fc3c
00000030: e4ae c33d 9857 89bd ba45 e6bd 72eb d8bd
00000040: 8aa3 f3bd 090a 39bc b8e6 99bd 3d09 9cbd
00000050: 4cee 033e 7e26 aa3d d104 2d3c 0e76 efbd
00000060: 17ba 883d 1bc1 86bd 8d4d a23d b50c 53bd
00000070: d6e4 15be 1590 133e 878d 423d bb20 d13b
00000080: aa89 e6bd cdb3 5fbd ea9f 89bc 8ec2 06be
00000090: f150 15bd 9fde c63b fa28 84bb 7344 15bd
000000a0: 5d0c a53d 7dc6 91bd 08d1 9b3d a7c4 9abd
000000b0: ecea 193e d669 9a3d 3663 643d b3bf 7e3d
000000c0: f05a f9bd 2fc2 4c3d bc5b eebc e98d ba3d
000000d0: 44ce b63d 018b c93d be29 adbd 2779 483d
000000e0: 272b c5bd 898f a6bd 00a2 d13d 27fc 893d
000000f0: 7140 513d e0d4 603c acdf bdbd 09e9 523d
00000100: b778 083e fd69 c83d 3a7b dd3d 8a56 ccb9
00000110: 346d a3bd 8160 98bd ed4d 053e 37e1 ab3b
00000120: f72c 9c3c 7ffe 6c3c 4a7c fe3d 4cc8 99bc
00000130: 6b81 48bd 88a5 f93c 8ab7 d53d 603d e1ba
00000140: 8b59 1dbd 6066 963c 488e 4bbd ecac 03bd
00000150: 3edb 793d 7296 19bb 221a a73d 6b1a 0e3d
00000160: 0061 523d 60e0 61bd f34f 63bd d7d4 82bd
00000170: b0f7 19be 1e9a 993d 74e1 a1bd d8cb 943b
00000180: 89c6 e1bd 97d2 6dbc ee51 da3d 3572 8c3d
00000190: 068c bd3d 74dd ab3d 54e0 7dbd c78f 31be
000001a0: e5b9 ddbb ad53 a33d 54c3 14be 284c 24bd
000001b0: ce3a 253e 1dc8 6d3c 677d 363d 56ec 85bc
000001c0: 68f6 ef3c ac17 27bd 153a c13c 39e6 1e3d
000001d0: fc74 e5bd dbdc 8c3d 211e a5bd 8303 dc3d
000001e0: a26b 10bc d517 b93d 3ad1 de3c c981 043e
000001f0: f34b 0fbe 51e5 d6bd 27c7 3e3c d7aa b93d
00000200: a423 b5bc 8aa6 62bd 6f6d b2bb a783 513d
00000210: 3047 b23d 5eb7 1abe 50e8 e63d 235b f5bb
00000220: 807a 5fbd 8146 9a3c 7e19 063e e07e ec3c
00000230: ec88 e5bc ca56 283e b86f caba 85c0 ad3b
00000240: a803 41bd 8762 a13d 1c2f e8bd d252 a4bd
00000250: 2074 db3c 0504 42be c1e9 173d 65c9 c2bd
00000260: c24f 04be a3d8 fcbc e76b d7ba 1731 763d
00000270: 07d0 25be 0559 d13d 4342 f7bd 6a74 3fbe
00000280: 4fd8 0ebe 8c7e 173d e7cb 41bc 058c c63c
00000290: 3df6 913d f37f ac3d 667c 1a3d afb3 25be
000002a0: 608e e23d 8c48 203e 6487 f93c 0963 363d
000002b0: f907 063c f91c b5bd bdc0 3dbe 8bce c33b
000002c0: 27a8 dc3b 4773 10be 88c7 adbd b8cd a0bd
000002d0: 01ff 33bc d964 21be 1027 b2bd e53d 01bd
000002e0: d7aa 0c3e 0267 96bd 6c35 39bd 2245 0e3e
000002f0: 4529 85bd f658 9cbb bbcf b2bd 8a1f 253e
00000300: 06c4 2ebd 02e7 07bc 4756 933d a6fd 0abd
00000310: c4cd 9c3d 2525 613d d990 a43d a97e a63c
00000320: 9341 58bd bfa8 2f3d 160f 763c 6601 423d
00000330: c99d d4bd d07e 2cbd 6e8f e83d 7e9f d33c
00000340: 551e 853c 813d c13d ddea 98bd a089 3e3d
00000350: 524f 79bd 632c f0bd 95ee 55bc 93b4 903d
00000360: a2bf 873d ea3e babc 7f9c 973d 8dbb a43d
00000370: 2cb9 7d3d 5879 1bbe e724 cb3c 9ab5 efbd
00000380: f555 1ebd a4a1 8ebd 1509 c83d 38c5 a63d
00000390: 0b5e 433d e17a ad3d eaaa 823d 7ad1 813c
000003a0: 5d61 913d 08ec 32bd b59f 33be 2cef efbd
000003b0: c72d 63bc 1916 ffb9 f3ed 1fbd 6c6e 913d
000003c0: 2a18 03be 8e0f 87bd b003 9ebd 968e 133e
000003d0: d0e5 963b 4eab 29bd 8111 d23c 73d2 e93d
000003e0: c76c 133e 22a4 6e3c ef5c 07bc e3f9 b33d
000003f0: d47a 1abe 460a cdbd a45b 3f3d 7e77 bb3b

weight_hh_l0 f4 [256, 64]
-0.0031269484 0.016640432 0.1352856 0.105615236 0.1185395 0.058508836 0.035411436 0.13742028
-0.12051212 0.033432245 0.030810757 -0.060190205 -0.0037959297 0.08474358 -0.08548816 0.047781423
-0.11432276 -0.020285064 0.07185877 0.089217894 -0.14706875 0.07920505 -0.03151887 -0.017307078
0.03755921 -0.090268366 0.007366547 -0.0696989 -0.016413355 -0.020033382 -0.067955874 0.0385723
-0.019816833 -0.014868252 0.0495808 -0.078422315 -0.04090639 -0.02549663 0.0630314 -0.14725372
0.14458565 -0.1342523 0.03703194 -0.114846535 -0.10061928 -0.017971965 -0.05827414 0.04070846
-0.049004138 -0.03556034 -0.06555428 -0.016435986 0.0054818834 0.06431818 -0.015039947 0.0424426
-0.011829021 -0.015344841 0.00054869713 -0.07430063 -0.08861247 0.033078548 0.08398536 0.085939355
-0.0069115995 -0.021432996 0.06231922 -0.07568164 -0.044841476 0.1417867 0.07165423 0.02697559
0.13679266 -0.16105336 -0.015108003 0.10558426 -0.014822533 0.07898256 0.13884723 -0.09372176
0.035371233 -0.080324546 -0.046757918 0.12181637 -0.06990799 -0.054289095 -0.11277655 -0.10416103
-0.037906434 -0.04656171 0.14844652 0.036151554 0.072449304 -0.005058035 0.033694655 -0.07840376
0.014145541 -0.045333676 0.00974378 0.05190828 0.04111459 0.06798113 0.02002964 0.08356676
-0.02163884 0.0546536 0.115783006 0.045557637 -0.06277908 0.01377747 -0.086898156 0.010578836
-0.1238079 -0.046817705 -0.13676672 0.05652098 -0.012526997 0.0635693 -0.0792279 0.059329566
0.102480836 -0.100594014 -0.08103477 -0.15780744 0.01647788 -0.0049849004 0.075402446 0.101305105
-0.047193736 -0.05489599 0.13266446 -0.055787433 0.043234546 0.07566342 -0.07240773 0.1665662
-0.06786532 -0.11761383 0.093119375 0.17804188 0.019318033 0.01674266 -0.027946634 -0.13592097
0.0930535 0.06944551 0.11929864 0.050436806 0.0850243 -0.116676845 0.041456442 -0.13710904
0.026726149 -0.09688134 -0.051143456 0.00053681975 -0.010477282 0.092800006 0.13281347 0.06178225
-0.000889692 -0.03792649 0.04544656 0.06698838 -0.012916599 0.10172566 -0.012778732 0.030204428
0.024489406 0.0120889 -0.043962657 -0.041243274 0.109038055 -0.13649909 -0.1725636 -0.13021794
0.0464346 -0.04318285 0.02367503 0.0122330515 0.08432332 0.1846967 0.1586382 0.032268927
-0.095556065 0.0029156797 0.105775476 -0.06486748 -0.019020539 -0.11469099 -0.10314137 -0.16599396
0.060009487 0.015985744 0.044806834 -0.057989318 0.12786949 0.14814015 0.11017688 0.16227889
0.029278306 0.047032125 -0.10632349 -0.049591195 -0.056781765 0.117497504 0.15566547 -0.088787384
-0.016328694 -0.07620413 0.0638344 0.03992838 -0.07200155 -0.14915217 0.031453166 -0.10918063
-0.05466642 0.035904452 0.068523034 0.07521302 0.12242943 -0.037952602 0.08894474 0.13057898
0.041999057 -0.008259523 0.046115745 0.040441267 0.113170706 0.0039439434 -0.018203903 0.037455637
-0.0880324 -0.11216108 -0.06950067 -0.031917483 0.0857557 -0.028572142 -0.06504429 0.10398444
0.07059463 -0.1054188 -0.11123653 0.13203022 0.097643115 -0.035666544 0.12766363 0.09122383
0.055694994 -0.082063146 0.043788314 0.033020046 0.04984075 -0.045530472 -0.015949016 -0.011478406
00000000: 7ded 4cbb 8451 883c 4f88 0a3e cd4c d83d
00000010: d6c4 f23d f6a6 6f3d 950b 113d e7b7 0c3e
00000020: 0fcf f6bd 40f0 083d d766 fc3c 018a 76bd
00000030: 22c5 78bb 0b8e ad3d 6b14 afbd 74b6 433d
00000040: 0d22 eabd dd2c a6bc b12a 933d dfb7 b63d
00000050: 3199 16be 4236 a23d ee19 01bd 93c7 8dbc
00000060: b0d7 193d 9fde b8bd 1363 f13b 4cbe 8ebd
00000070: 4d75 86bc 0c1d a4bc 732c 8bbd fdfd 1d3d
00000080: e956 a2bc f899 73bc 3d15 4b3d e19b a0bd
00000090: 758d 27bd 4fde d0bc 9b16 813d aec9 16be
000000a0: 430e 143e 6f79 09be ceae 173d a934 ebbd
000000b0: 7b11 cebd f139 93bc ddb0 6ebd eabd 263d
000000c0: 90b8 48bd b8a7 11bd 5341 86bd c3a4 86bc
000000d0: 5fa1 b33b 40b9 833d 1c6a 76bc 4bd8 2d3d
000000e0: 83ce 41bc ee68 7bbc 71d6 0f3a ee2a 98bd
000000f0: 747a b5bd 5f7d 073d 8400 ac3d f900 b03d
00000100: b37a e2bb 4094 afbc 7042 7f3d fafe 9abd
00000110: b2ab 37bd 8830 113e 74bf 923d eafb dc3c
00000120: 6013 0c3e 2ceb 24be 8f87 77bc 8f3c d83d
00000130: 36da 72bc 9cc1 a13d f82d 0e3e 32f1 bfbd
00000140: 6de1 103d 3281 a4bd 3b85 3fbd dc7a f93d
00000150: ec2b 8fbd 3e5e 5ebd 64f7 e6bd 6152 d5bd
00000160: c743 1bbd 7eb7 3ebd 5d02 183e a713 143d
00000170: 4d60 943d dfbd a5bb 6803 0a3d 2792 a0bd
00000180: b3c2 673c ceaf 39bd 60a4 1f3c c79d 543d
00000190: c667 283d b139 8b3d 3315 a43c 0d25 ab3d
000001a0: f043 b1bc 74dc 5f3d a41f ed3d a59a 3a3d
000001b0: 5192 80bd e6ba 613c a9f7 b1bd db52 2d3c
000001c0: ff8e fdbd ecc3 3fbd 930c 0cbe 8b82 673d
000001d0: 093e 4dbc 9f30 823d 3d42 a2bd 8f03 733d
000001e0: 79e1 d13d 3c04 cebd 8ff5 a5bd 4698 21be
000001f0: 9efc 863c 6058 a3bb 996c 9a3d 0d79 cf3d
00000200: 384e 41bd 9eda 60bd 31d9 073e 5d81 64bd
00000210: b516 313d 6cf5 9a3d 814a 94bd 5490 2a3e
00000220: f9fc 8abd 85df f0bd 5fb5 be3d 9c50 363e
00000230: da40 9e3c e727 893c 57f0 e4bc de2e 0bbe
00000240: d592 be3d 7339 8e3d d852 f43d d396 4e3d
00000250: 3821 ae3d 45f4 eebd 3bce 293d 5066 0cbe
00000260: ccf0 da3c b969 c6bd cd7b 51bd 5db9 0c3a
00000270: e8a8 2bbc ee0d be3d 4100 083e 620f 7d3d
00000280: 383a 69ba cf58 1bbd 2c26 3a3d 3431 893d
00000290: 25a0 53bc 8b55 d03d e35d 51bc 476f f73c
000002a0: 029e c83c 8610 463c 3012 34bd b5ee 28bd
000002b0: 584f df3d 6bc6 0bbe 83b4 30be da57 05be
000002c0: 3532 3e3d 80e0 30bd 23f2 c13c 236d 483c
000002d0: b4b1 ac3d 2221 3d3e 0d72 223e 6c2c 043d
000002e0: e6b2 c3bd fd14 3f3b d0a0 d83d 3ed9 84bd
000002f0: f6d0 9bbc 1ce3 eabd c83b d3bd 52fa 29be
00000300: 82cc 753d 89f4 823c 5f87 373d 3586 6dbd
00000310: 38f0 023e 0db2 173e 6ba4 e13d 702c 263e
00000320: 0fd9 ef3c c2a4 403d 21c0 d9bd 2320 4bbd
00000330: ff93 68bd 88a2 f03d c566 1f3e 29d6 b5bd
00000340: c1c3 85bc e910 9cbd 9cbb 823d f18b 233d
00000350: 8c75 93bd 59bb 18be 09d5 003d 189a dfbd
00000360: e5e9 5fbd 8c10 133d ce55 8c3d 4909 9a3d
00000370: 48bc fa3d 3074 1bbd a928 b63d 7fb6 053e
00000380: 3407 2c3d f352 07bc dde3 3c3d bea5 253d
00000390: 0bc6 e73d 323c 813b 5a20 95bc 156b 193d
000003a0: 554a b4bd b5b4 e5bd 5e56 8ebd e8bb 02bd
000003b0: afa0 af3d 2010 eabc f135 85bd cbf5 d43d
000003c0: eb93 903d d0e5 d7bd facf e3bd ee32 073e
000003d0: 1df9 c73d 1517 12bd 41ba 023e 8fd3 ba3d
000003e0: 6f20 643d b910 a8bd 605b 333d 0740 073d
000003f0: d025 4c3d 297e 3abd 83a7 82bc ed0f 3cbc

bias_ih_l0 f4 [256]
-0.0540323 0.007866206 0.17182358 0.099101245 0.036480132 0.124090426 -0.07923197 0.10308534
-0.033131324 -0.051887393 -0.019707955 0.014591974 0.15320082 0.05171487 0.16209555 0.09645353
-0.029990569 0.097802356 -0.09139652 0.089387506 -0.022570122 0.1009272 -0.052431483 0.115158714
0.0917926 -0.052509222 -0.055354685 0.057814572 0.04253752 0.037403982 -0.072320916 -0.014954966
0.081532665 0.05002729 -0.106644735 -0.043024577 0.0089513045 -0.06811296 -0.00796244 0.025792923
0.049103845 -0.013392547 -0.0818298 0.0035826382 -0.09558806 0.07537854 0.05956713 0.054328363
-0.030734133 -0.08858662 -0.034505535 -0.06243118 -0.067520514 -0.08032994 0.1261956 0.1326623
0.13434638 -0.0007345873 0.02955262 0.118829995 0.09466679 -0.055028554 0.04596003 -0.0034752034
-0.07397364 0.03261491 0.055651363 -0.05289958 -0.028548397 -0.026785832 0.11270822 0.054083847
0.000812034 -0.08094335 0.1546036 -0.07049417 -0.02551529 0.008484643 0.031140383 -0.013904332
0.037212357 -0.048920266 -0.05020778 0.12235286 0.10803395 -0.073935285 -0.01452609 0.033903997
-0.059319552 -0.004936144 -0.071486294 0.10833217 -0.03715282 0.097188555 -0.09061558 -0.065556325
-0.034024492 0.055447083 -0.057405833 0.0779326 0.0030832088 0.040157277 -0.027977899 -0.06738006
0.13982022 0.04520217 0.04824997 -0.032638263 -0.018247109 0.119752616 -0.048526853 -0.045749154
0.1664677 -0.10329682 0.04362781 -0.017770028 -0.036546245 0.08128817 0.056568794 -0.029875034
0.02953839 0.120696746 0.061753456 -0.06725607 0.060633894 0.0106349215 -0.04283314 -0.07573709
-0.040250972 -0.092372715 0.09037157 -0.09324393 0.04414243 0.0774969 0.045919072 0.10688748
-0.014951226 -0.13379279 0.10141289 0.123682275 0.15672396 -0.017959375 0.12747648 -0.07664962
-0.08439553 0.0985424 -0.034134977 0.01104231 0.0041599087 -0.13392395 -0.11104725 -0.0819258
-0.066673204 -0.15522434 -0.094314426 -0.025012081 0.01885333 0.006481469 0.04190786 0.06808667
-0.051165923 -0.085684024 0.105769165 -0.090678014 0.09998997 -0.111865826 -0.06023294 -0.1348457
0.11765127 -0.12878147 -0.0992094 -0.028480256 0.013870388 0.034633067 0.03973406 -0.071711965
0.09090432 0.085907266 -0.10715851 0.06457663 0.036983576 0.11441534 0.019549154 0.09009173
-0.066562556 0.065510035 0.072976366 -0.10504642 -0.12802987 -0.028686343 -0.05492697 -0.046066664
0.030745296 -0.050547197 0.13769118 0.06618951 0.10776332 0.12395671 -0.108463176 0.106208205
0.10227068 0.06259372 0.14626788 -0.005396187 0.1732966 -0.05047064 0.024324095 -0.028765893
0.09011509 0.08308396 -0.036960214 -0.031593405 0.13753763 -0.1046538 0.06422132 0.0064289486
0.06331076 -0.021369623 0.07291798 0.1694154 0.17575292 0.15170182 0.06510423 0.116837494
0.08720437 0.038499027 -0.04057361 0.029310994 -0.09802759 0.16173247 -0.04602752 0.09576078
0.051001523 -0.05638795 0.14710316 -0.088805124 0.15637118 0.057579078 0.08469384 0.10399704
0.031757414 0.020068783 -0.011700097 0.13215517 0.12547909 -0.014070945 -0.056656692 -0.045193102
0.17384303 -0.06584646 0.11137907 -0.0016484968 -0.0018353987 0.05481282 0.05921301 0.0949171
00000000: f950 5dbd 42e1 003c 85f2 2f3e 98f5 ca3d
00000010: 316c 153d 1f23 fe3d 5f44 a2bd 681e d33d
00000020: b6b4 07bd e087 54bd 9472 a1bc 2d13 6f3c
00000030: ade0 1c3e f9d2 533d 60fc 253e 6e89 c53d
00000040: c8ae f5bc 9a4c c83d 192e bbbd cc10 b73d
00000050: fae4 b8bc ebb2 ce3d 65c2 56bd 55d8 eb3d
00000060: c2fd bb3d e913 57bd 98bb 62bd f9ce 6c3d
00000070: d33b 2e3d eb34 193d fd1c 94bd ac05 75bc
00000080: 99fa a63d 6ae9 4c3d 8e68 dabd 8a3a 30bd
00000090: 7ea8 123c cf7e 8bbd e574 02bc ae4b d33c
000000a0: 1d21 493d 6a6c 5bbc 6296 a7bd b2ca 6a3b
000000b0: acc3 c3bd 1060 9a3d aafc 733d 6b87 5e3d
000000c0: 26c6 fbbc e76c b5bd ad55 0dbd d6b7 7fbd
000000d0: 3248 8abd 0684 a4bd 6b39 013e a0d8 073e
000000e0: 1992 093e 5291 40ba 5618 f23c 245d f33d
000000f0: a9e0 c13d 9f65 61bd 9640 3c3d 3dc0 63bb
00000100: 7e7f 97bd 3697 053d aff2 633d 3bad 58bd
00000110: 54de e9bc f66d dbbc 91d3 e63d 0687 5d3d
00000120: aede 543a a1c5 a5bd 6850 1e3e 3f5f 90bd
00000130: 7105 d1bc 2c03 0b3c 1e1a ff3c ffce 63bc
00000140: fc6b 183d 9e60 48bd aca6 4dbd 2394 fa3d
00000150: e740 dd3d 626b 97bd d6fe 6dbc ebde 0a3d
00000160: 0ff9 72bd 61bf a1bb 6867 92bd 42dd dd3d
00000170: 8e2d 18bd cb0a c73d a994 b9bd 6542 86bd
00000180: 445d 0bbd 7b1c 633d 6122 6bbd 219b 9f3d
00000190: a90f 4a3b f57b 243d e831 e5bc 8ffe 89bd
000001a0: 082d 0f3e e925 393d c3a1 453d b3af 05bd
000001b0: f67a 95bc dc40 f53d 18c4 46bd 7763 3bbd
000001c0: 8276 2a3e 488d d3bd 13b3 323d 7392 91bc
000001d0: 84b1 15bd 697a a63d aeb4 673d 7dbc f4bc
000001e0: 7efa f13c db2f f73d 31f1 7c3d 8dbd 89bd
000001f0: 3f5b 783d 183e 2e3c cd71 2fbd 0c1c 9bbd
00000200: 34de 24bd e82d bdbd bb14 b93d acf6 bebd
00000210: b1ce 343d b2b6 9e3d a315 3c3d d3e7 da3d
00000220: fdf5 74bc fa00 09be 90b1 cf3d 224d fd3d
00000230: 3f7c 203e 8a1f 93bc 3289 023e 7afa 9cbd
00000240: 90d7 acbd 99d0 c93d 1ed1 0bbd ceea 343c
00000250: d84f 883b 5c23 09be be6c e3bd b7c8 a7bd
00000260: f68b 88bd 21f3 1ebe ec27 c1bd 23e6 ccbc
00000270: 4c72 9a3c 8162 d43b 94a7 2b3d 0671 8b3d
00000280: 5c93 51bd 1b7b afbd 819d d83d 65b5 b9bd
00000290: 8bc7 cc3d e919 e5bd d1b6 76bd fe14 0abe
000002a0: 26f3 f03d 4adf 03be 4c2e cbbd 6d4f e9bc
000002b0: a040 633c 67db 0d3d 2fc0 223d b9dd 92bd
000002c0: 0b2c ba3d 26f0 af3d ec75 dbbd c140 843d
000002d0: 177c 173d 9752 ea3d 8c25 a03c 0382 b83d
000002e0: f351 88bd 202a 863d a274 953d 9422 d7bd
000002f0: 431a 03be 9fff eabc 1afb 60bd 66b0 3cbd
00000300: 8fdd fb3c 940a 4fbd ebfe 0c3e 5e8e 873d
00000310: 04b3 dc3d 04dd fd3d f121 debd b083 d93d
00000320: 4a73 d13d 2331 803d 3fc7 153e 7fd2 b0bb
00000330: aa74 313e 4dba 4ebd 5343 c73c 73a6 ebbc
00000340: 438e b83d ec27 aa3d 9863 17bd 1668 01bd
00000350: aad6 0c3e bb54 d6bd 7886 833d eea9 d23b
00000360: 12a9 813d 590f afbc 0656 953d 3b7b 2d3e
00000370: 93f8 333e b957 1b3e 5e55 853d 7f48 ef3d
00000380: 3498 b23d 28b1 1d3d 8430 26bd 9c1d f03c
00000390: b0c2 c8bd 329d 253e 5a87 3cbd 3a1e c43d
000003a0: f9e6 503d 0df7 66bd 36a2 163e 76df b5bd
000003b0: c41f 203e 0ad8 6b3d f773 ad3d 66fc d43d
000003c0: 1014 023d 4a67 a43c c3b1 3fbc af53 073e
000003d0: 977d 003e d289 66bc d910 68bd 671c 39bd
000003e0: e803 323e 82da 86bd b61a e43d 6012 d8ba
000003f0: c391 f0ba 6883 603d 5789 723d e663 c23d

bias_hh_l0 f4 [256]
0.09051745 -0.028337114 0.17225619 -0.020262588 0.01245851 0.15691918 -0.08623419 -0.053007428
0.08453051 -0.085663795 -0.017403744 0.004093589 0.061224587 0.07776827 0.069740854 -0.025828272
-0.079377756 0.13670708 -0.07128654 0.033820853 0.068139486 -0.065118305 0.046680633 0.043179438
-0.00941804 0.004727664 0.040983565 0.06659462 0.15501684 0.09975825 -0.05035419 0.050268825
0.077390485 -0.056634925 -0.06305015 -0.07073269 0.06850497 0.11812884 0.054908555 0.17127222
-0.018523999 -0.100791 -0.04489317 0.10233622 -0.053477127 0.1630794 0.15575464 0.09673613
0.0032543647 0.022168037 -0.07266808 -0.103741646 0.019094987 0.112243235 -0.014196875 -0.07523403
0.14882289 -0.06946669 -0.06279595 0.074247375 -0.0359391 -0.039436933 0.13568622 -0.017337484
0.05187103 0.10560513 -0.02308155 -0.039348498 0.09743272 -0.038308125 0.032781366 0.06473707
0.11689398 -0.057339776 -0.06830623 0.10196682 0.14393948 0.15869698 -0.03671937 0.0727743
-0.00023788864 -0.090784445 -0.02981421 0.040431257 -0.010264137 0.09196292 0.11559687 0.1181909
0.11265801 -0.032251325 0.14977665 0.0037444544 -0.052893244 0.102608405 0.065089904 0.12451323
-0.057371512 0.0062657073 -0.07710912 0.16051385 0.08011718 -0.0057807774 -0.016193055 -0.019382067
-0.017880889 -0.09320384 -0.06095971 -0.080517106 -0.097181685 0.13239719 -0.011056905 0.144059
0.15525565 -0.019998508 0.090534456 -0.022619827 -0.036481306 0.1056469 0.042708114 0.06698365
-0.048071623 -0.030833049 0.081069656 0.09540149 -0.0145310005 -0.014115376 0.006191386 -0.017869327
0.063314185 -0.024123931 0.04806479 0.07465425 0.04968067 0.1379246 -0.082511395 0.047563396
0.086902924 0.015796395 -0.060605835 0.12952816 0.07916515 -0.034246467 -0.009336119 0.055510357
0.100194916 0.02134474 -0.041389607 0.067201294 -0.13220386 -0.11613024 0.1021371 0.071292095
0.077465266 0.051801514 0.08707799 0.12223983 0.022651847 0.0061319484 0.10942563 0.021735039
-0.020905478 0.048157703 -0.006434473 -0.101891555 0.15528916 -0.020184018 0.06807262 -0.066647924
0.07830359 -0.06256449 0.0380964 -0.12148491 -0.10868221 0.090454414 0.03799208 0.086730905
0.11107316 0.004592283 -0.025895895 0.1159626 0.08936583 0.12379796 0.12162871 0.04842189
-0.080448866 0.13343665 0.049354717 -0.13748 0.043690644 -0.07402426 -0.067947835 -0.13829927
-0.040513106 -0.044222683 0.13039199 0.1230288 -0.012651151 0.13440278 0.01331739 -0.0530172
0.066958696 0.12735465 0.12630664 0.13181165 0.09158444 -0.028909981 0.1518735 0.11043179
0.12940882 -0.034695003 0.11848552 0.096526995 0.15471601 0.0064832326 0.13612552 0.14615062
0.010458732 0.14457662 0.09639354 0.038001336 0.0118892025 0.14472379 0.011352923 -0.030029027
0.1671465 0.000770842 0.041522354 0.030477345 0.013693213 0.10614944 -0.017290154 0.10111587
0.0907333 -0.03454205 -0.013344947 -0.04248978 -0.05065168 -0.054095484 0.15762694 -0.03443005
0.08359974 -0.06473281 -0.00089785096 0.033533793 0.015311186 0.14744645 0.021200329 0.0117532015
0.12642118 0.018793454 0.00870685 0.12242468 0.028898846 0.028138848 0.19866195 0.03333336
00000000: 3661 b93d 3c23 e8bc ed63 303e bafd a5bc
00000010: c71e 4c3c 6caf 203e 8d9b b0bd 511e 59bd
00000020: 551e ad3d 8070 afbd 4c92 8ebc 8323 863b
00000030: a2c6 7a3d f944 9f3d 4bd4 8e3d d095 d3bc
00000040: ce90 a2bd f1fc 0b3e adfe 91bd bc87 0a3d
00000050: b78c 8b3d bf5c 85bd 3134 3f3d ecdc 303d
00000060: 1f4e 1abc 85ea 9a3b 62de 273d c362 883d
00000070: bcbc 1e3e 0e4e cc3d 3240 4ebd afe6 4d3d
00000080: e77e 9e3d 06fa 67bd 7020 81bd 4ddc 90bd
00000090: 554c 8c3d 89ed f13d cbe7 603d fc61 2f3e
000000a0: a4bf 97bc 836b cebd e7e1 37bd a795 d13d
000000b0: d50a 5bbd 49fe 263e 257e 1f3e 981d c63d
000000c0: 2e47 553b be99 b53c 01d3 94bd 8076 d4bd
000000d0: 176d 9c3c c8df e53d 029a 68bc 4d14 9abd
000000e0: 0765 183e 8d44 8ebd 2a9b 80bd 020f 983d
000000f0: e134 13bd 9f88 21bd 54f1 0a3e 5707 8ebc
00000100: b876 543d 8147 d83d 8515 bdbc e42b 21bd
00000110: ce8a c73d fbe8 1cbd c145 063d de94 843d
00000120: 1c66 ef3d 1ddd 6abd 23e4 8bbd fbd3 d03d
00000130: df64 133e 7681 223e 0d67 16bd b10a 953d
00000140: bf71 79b9 32ed b9bd ee3c f4bc 3f9b 253d
00000150: e92a 28bc 0e57 bc3d 0dbe ec3d 120e f23d
00000160: 3eb9 e63d f719 04bd 0d5f 193e 8565 753b
00000170: 96a6 58bd 5b24 d23d db4d 853d cb00 ff3d
00000180: 64fe 6abd 9050 cd3b 63eb 9dbd be5d 243e
00000190: 7a14 a43d ad6c bdbb 4ca7 84bc 24c7 9ebc
000001a0: f17a 92bc a8e1 bebd e4b0 79bd 27e6 a4bd
000001b0: 3107 c7bd 2193 073e 0528 35bc 3484 133e
000001c0: 56fb 1e3e e9d3 a3bc 216a b93d 374d b9bc
000001d0: 6c6d 15bd 675d d83d b4ee 2e3d b92e 893d
000001e0: c0e6 44bd 9795 fcbc d907 a63d db61 c33d
000001f0: 6f13 6ebc 2e44 67bc 1ce1 ca3b b262 92bc
00000200: deaa 813d 8d9f c5bc 96df 443d 54e4 983d
00000210: f57d 4b3d 1b3c 0d3e bcfb a8bd d6d1 423d
00000220: 29fa b13d 7167 813c d33d 78bd 08a3 043e
00000230: 5721 a23d 0646 0cbd 85f6 18bc d45e 633d
00000240: fe32 cd3d 2adb ae3c 2688 29bd d5a0 893d
00000250: 7360 07be b1d5 edbd 422d d13d 9701 923d
00000260: 1ca6 9e3d d32d 543d f255 b23d e058 fa3d
00000270: 5e90 b93c 83ee c83b 8b1a e03d ae0d b23c
00000280: f741 abbc 0341 453d 46d8 d2bb 85ac d0bd
00000290: 1f04 1f3e f458 a5bc a869 8b3d b57e 88bd
000002a0: a25d a03d d021 80bd f90a 1c3d 15cd f8bd
000002b0: c794 debd 2a40 b93d 959d 1b3d f99f b13d
000002c0: 537a e33d dd7a 963b a123 d4bc cd7d ed3d
000002d0: 6f05 b73d c989 fd3d 7918 f93d 0856 463d
000002e0: 60c2 a4bd 9ea3 083e 2c28 4a3d 8fc7 0cbe
000002f0: f6f4 323d 089a 97bd 3c28 8bbd 539e 0dbe
00000300: 12f1 25bd d822 35bd 7a85 053e 86f6 fb3d
00000310: c646 4fbc e2a0 093e 2f31 5a3c 9028 59bd
00000320: a421 893d 4269 023e 8756 013e a2f9 063e
00000330: 9f90 bb3d a0d4 ecbc ba84 1b3e 102a e23d
00000340: bf83 043e 591c 0ebd 89a8 f23d f2af c53d
00000350: e06d 1e3e 4c71 d43b 7d64 0b3e 82a8 153e
00000360: 1a5b 2b3c e50b 143e fa69 c53d 4aa7 1b3d
00000370: eeca 423c 7932 143e 9c01 3a3c 6fff f5bc
00000380: 7428 2b3e 5512 4a3a 5813 2a3d a0ab f93c
00000390: 8059 603c e164 d93d 15a4 8dbc d615 cf3d
000003a0: 61d2 b93d f77b 0dbd c4a4 5abc c309 2ebd
000003b0: 2378 4fbd 3a93 5dbd f568 213e 8606 0dbd
000003c0: 5736 ab3d a392 84bd c25d 6bba bb5a 093d
000003d0: c5db 7a3c 34fc 163e 50ac ad3c 8090 403c
000003e0: 8e74 013e bbf4 993c 2da7 0e3c cab9 fa3d
000003f0: 46bd ec3c 7183 e63c 0a6e 4b3e 9088 083d

weight f4 [64, 2]
-0.55742145 0.6320485 0.34440094 0.46089843 -0.6208387 0.14354941 -0.2491748 0.1174653
0.017966246 0.013575048 0.4060307 0.25115582 0.4862792 0.6290863 -0.62503326 -0.101009384
0.11348486 -0.5894659 -0.64863867 0.26895037 -0.32756832 -0.2961661 -0.30443588 -0.1255158
0.5576755 -0.5079589 -0.080869086 0.039007 -0.62900114 0.42303523 0.51179427 0.48926494
0.10106689 0.51750106 -0.22966725 -0.38775998 0.06752673 0.556317 -0.72614646 0.6712331
-0.6793531 -0.1442243 -0.1953821 -0.14786194 -0.32919157 0.3236276 -0.2623304 0.68141776
0.23175739 0.08056745 -0.68363816 0.037459865 -0.5009249 0.28960273 0.30540827 0.24359033
0.4701451 0.10741607 -0.6811301 -0.42667526 -0.46621388 0.22031528 -0.46009678 -0.3022097
-0.69261473 0.6086113 0.07109437 -0.71177953 -0.5382486 0.07304418 0.49604806 0.4775342
-0.31362808 0.6230474 -0.08306851 0.37072334 0.29051697 -0.24420355 0.33420408 -0.5704171
0.18668114 0.50604576 -0.15037757 0.4261327 0.6169575 -0.5560269 -0.42353034 -0.5224617
-0.25226048 -0.51365036 0.71362615 0.56745476 -0.6797595 -0.3896434 0.21023297 -0.37435448
0.473284 -0.52809197 0.4344255 0.28166342 -0.20748769 -0.13731907 -0.17737533 -0.6193889
0.42673573 -0.3286408 -0.7032804 -0.43369097 0.603631 -0.6360928 -0.12449772 0.7285816
-0.00806988 0.008135856 -0.4396653 -0.06293656 0.5609879 -0.29272312 0.66639394 0.28847396
-0.24370445 -0.04863844 0.6003161 -0.37710205 -0.63151973 -0.041414384 -0.22818868 0.4319454
00000000: 2cb3 0ebf eecd 213f 5255 b03e e1fa eb3e
00000010: 49ef 1ebf 9efe 123e ae27 7fbe a691 f03d
00000020: f32d 933c e169 5e3c 42e3 cf3e 7f97 803e
00000030: 96f9 f83e cd0b 213f 2e02 20bf 02de cebd
00000040: c06a e83d 3de7 16bf 2f0d 26bf ddb3 893e
00000050: 09b7 a7be 15a3 97be 05df 9bbe 3787 00be
00000060: d2c3 0e3f 9809 02bf b19e a5bd cec5 1f3d
00000070: 3806 21bf 1398 d83e f304 033f ef80 fa3e
00000080: 28fc ce3d f37a 043f e42d 6bbe 7a88 c6be
00000090: 744b 8a3d ca6a 0e3f bce4 39bf efd5 2b3f
000000a0: 16ea 2dbf 89af 13be 3f12 48be 1f69 17be
000000b0: cc8b a8be 84b2 a53e 2c50 86be 6571 2e3f
000000c0: cf51 6d3e 8c00 a53d e902 2fbf 846f 193d
000000d0: 9d3c 00bf cf46 943e 795e 9c3e be6f 793e
000000e0: dcb6 f03e f5fc db3d 8b5e 2ebf 2e75 dabe
000000f0: 96b3 eebe 549a 613e ce91 ebbe 3bbb 9abe
00000100: 334f 31bf f3cd 1b3f ed99 913d 2f37 36bf
00000110: a9ca 09bf 3098 953d 03fa fd3e 5d7f f43e
00000120: dc93 a0be 0980 1f3f d31f aabd 73cf bd3e
00000130: a4be 943e 7f10 7abe cc1c ab3e db06 12bf
00000140: 5729 3f3e 378c 013f 94fc 19be 112e da3e
00000150: edf0 1d3f c757 0ebf f8d8 d8be 0dc0 05bf
00000160: 4928 81be 977e 03bf 34b0 363f b744 113f
00000170: b804 2ebf 577f c7be 5047 573e 64ab bfbe
00000180: 4852 f23e 0931 07bf 056d de3e 3036 903e
00000190: a777 54be 5f9d 0cbe e1a1 35be 4590 1ebf
000001a0: 1b7d da3e 9b43 a8be 2f0a 34bf be0c debe
000001b0: 9087 1a3f fad6 22bf a9f8 febd 5384 3a3f
000001c0: 8837 04bc 414c 053c cf1b e1be e2e4 80bd
000001d0: e79c 0f3f cedf 95be cb98 2a3f dcb2 933e
000001e0: a98d 79be 1a39 47bd 51ae 193f 8513 c1be
000001f0: 47ab 21bf 21a2 29bd 4baa 69be f327 dd3e

bias f4 [64]
0.21908236 0.14474326 -0.23663974 0.19426177 0.53432524 -0.4685713 0.14166756 -0.15363048
-0.6239368 0.36389732 0.56087506 -0.4409717 -0.22628687 0.33152395 -0.12612762 0.6187661
0.16696031 0.61941874 -0.41395843 -0.32307282 0.47161928 -0.56481886 0.017651426 -0.068722054
-0.30554184 -0.0061170636 -0.37207165 -0.060926147 -0.53052473 0.08971339 -0.03532705 -0.55031043
-0.30180112 -0.16811612 0.11030989 -0.61841244 -0.12612486 0.48400667 -0.20256689 -0.43450397
0.09953638 0.3424704 -0.32740578 0.026759837 0.28273627 -0.48646316 -0.6545831 0.2946326
-0.6275525 -0.5100344 0.25181296 0.3111055 -0.20656118 -0.30330476 -0.4749726 0.23657683
0.20621607 0.7503259 -0.07119946 0.43540558 -0.25424853 -0.18208759 -0.10819747 0.25246206
00000000: 2057 603e 9437 143e b051 72be 8fec 463e
00000010: 8ac9 083f 94e8 efbe 4d11 113e 4f51 1dbe
00000020: 52ba 1fbf c050 ba3e 8295 0f3f 0bc7 e1be
00000030: bfb7 67be 82bd a93e 9927 01be 7567 1e3f
00000040: a5f7 2a3e 3a92 1e3f 5cf2 d3be cd69 a5be
00000050: 1578 f13e f897 10bf b999 903c 26be 8cbd
00000060: fb6f 9cbe a671 c8bb 2d80 bebe b28d 79bd
00000070: 78d0 07bf a7bb b73d 19b3 10bd 25e1 0cbf
00000080: ad85 9abe a226 2cbe 27ea e13d 4750 1ebf
00000090: e026 01be b9cf f73e b26d 4fbe 4e77 debe
000000a0: bbd9 cb3d 4858 af3e bba1 a7be 7237 db3c
000000b0: cfc2 903e b311 f9be c292 27bf 16da 963e
000000c0: 48a7 20bf 9d91 02bf a1ed 803e 3849 9f3e
000000d0: c684 53be c34a 9bbe 9c2f f3be 3241 723e
000000e0: 4e2a 533e 5c15 403f 06d1 91bd 7bed de3e
000000f0: dd2c 82be 2b75 3abe a396 ddbd b542 813e

weight_ih_l0 f4 [256, 64]
-0.034129575 -0.062698364 0.033303298 0.0660492 0.0034005593 -0.07728757 -0.016833313 -0.018112544
-0.09102823 -0.11754296 0.05488841 -0.085219726 0.07640791 -0.056853477 -0.017738914 0.026186483
-0.06532836 0.15123567 0.044383395 0.063195676 0.080903664 -0.094642065 -0.07600042 -0.030561432
-0.024425205 -0.042777613 0.06808069 0.0455743 0.16320853 -0.08711601 0.10368333 -0.09397825
-0.05947424 0.06567743 -0.06536137 -0.10148276 -0.05482111 -0.02139322 -0.075825445 0.11804209
0.040834643 -0.04021151 0.047199924 0.025768952 0.120582856 0.11116999 -0.043794468 0.12625794
-0.05912156 0.0021582793 -0.044146862 0.021343192 0.025899151 0.026251977 0.03068137 -0.08986916
0.008247622 0.033729825 0.106821604 0.13930552 -0.062331572 0.0907989 0.0970327 -0.05108123
0.03470706 -0.00837362 -0.06080346 -0.024648398 -0.040942278 0.06701156 0.025759378 0.13315992
-0.14681399 0.054032937 -0.13748118 0.00036190805 -0.104201354 0.02007795 -0.018118227 -0.060350902
-0.0969585 -0.008442084 -0.07143761 -0.07817116 0.02275218 -0.044784404 0.13647401 0.016390063
0.012150039 0.03317067 0.10862429 0.075585075 0.05741253 0.14349425 -0.081830524 -0.03203326
-0.08051198 0.044655226 -0.04468395 -0.023364969 -0.010836896 0.05038921 0.07104896 -0.057744652
-0.052489012 0.089845374 -0.04632833 0.07148455 0.117236845 0.054128364 -0.11121529 0.14102204
0.124508075 0.080432795 0.05502432 0.14653128 -0.054085582 -0.048271567 -0.05015536 0.03804623
0.050236594 -0.038322683 -0.045302995 0.018286366 0.16243188 0.086387806 0.010707082 0.096020736
-0.08881907 0.025083486 0.041734964 -0.13459106 -0.12423041 0.07515438 0.026309185 -0.12132322
-0.05496071 0.12134359 0.046716508 -0.03408157 -0.096950494 -0.014704649 0.0821881 0.10037481
-0.08011175 -0.022612503 0.0014697887 0.031211697 0.0024604003 0.08941819 0.08020559 -0.054297004
0.025230812 -0.11357245 0.10527514 -0.113032065 -0.06186282 -0.073801056 -0.038656995 0.14288375
-0.032052618 -0.06827003 0.10222085 -0.06382654 -0.114442065 -0.06281483 -0.019652545 -0.104348935
0.041035615 -0.06686895 0.07451113 -0.062729456 0.11647747 -0.02006781 0.098143905 0.11178284
-0.11042475 0.060077216 0.1310132 -0.073583394 0.016881034 -0.0900557 0.11113321 -0.053911936
0.082424924 -0.10328309 -0.0057277116 -0.08435506 0.06725494 0.059632134 -0.11286146 0.018946461
0.13832496 0.0018425556 0.12772702 0.117819384 0.06993331 0.09478772 -0.08095697 -0.005405982
0.015155643 0.0076830676 0.05336695 -0.003926495 0.08112979 0.004286279 0.08550113 -0.0019899167
-0.07636468 -0.040816892 0.028293643 -0.07168889 0.051738802 0.124107376 -0.08066086 0.11192683
-0.05123113 -0.019423967 -0.036002085 -0.050782178 -0.045913752 0.09390378 -0.106402114 -0.00030577707
0.100778185 0.08484002 -0.07576796 0.068798624 -0.03368157 -0.0741161 0.076746635 0.08442032
0.07545336 -0.015077452 0.040431038 0.0057662935 -0.102027506 -0.11204098 -0.066428624 0.13091849
-0.024324408 -0.0054648314 -0.028497199 -0.08803068 -0.023345008 -0.07575691 0.060655 0.05984479
0.04513242 -0.07908641 0.07631332 0.091147214 0.035914402 -0.09239474 -0.043215457 0.07634619
00000000: 74cb 0bbd 0068 80bd 0a69 083d ce44 873d
00000010: ebdb 5e3b f248 9ebd 04e6 89bc c260 94bc
00000020: 026d babd 5dba f0bd abd2 603d ae87 aebd
00000030: c07b 9c3d 31df 68bd 3351 91bc 0985 d63c
00000040: e0ca 85bd 86dd 1a3e 5dcb 353d bc6c 813d
00000050: d2b0 a53d b3d3 c1bd 1ca6 9bbd f85b fabc
00000060: 5e17 c8bc 9437 2fbd e46d 8b3d 1eac 3a3d
00000070: 2320 273e e169 b2bd ed57 d43d ab77 c0bd
00000080: 439b 73bd e381 863d 2fdc 85bd 31d6 cfbd
00000090: 1a8c 60bd d640 afbc 5f4a 9bbd 0dc0 f13d
000000a0: 3a42 273d d3b4 24bd b554 413d 6919 d33c
000000b0: 25f4 f63d 17ad e33d d461 33bd c349 013e
000000c0: 7329 72bd eb71 0d3b 57d3 34bd ebd7 ae3c
000000d0: 752a d43c 630e d73c 7f57 fb3c 520d b8bd
000000e0: 0921 073c 4928 0a3d 49c5 da3d 1ba6 0e3e
000000f0: 644f 7fbd c6f4 b93d 15b9 c63d 8d3a 51bd
00000100: fd28 0e3d 8231 09bc 0d0d 79bd 70eb c9bc
00000110: 17b3 27bd 5b3d 893d 5505 d33c 135b 083e
00000120: 6856 16be a451 5d3d dec7 0cbe 7abe bd39
00000130: 8567 d5bd 837a a43c ad6c 94bc 8232 77bd
00000140: 2e92 c6bd ab50 0abc e24d 92bd 3318 a0bd
00000150: c862 ba3c da6f 37bd d8bf 0b3e 7444 863c
00000160: f510 473c f8dd 073d 6976 de3d 59cc 9a3d
00000170: 6729 6b3d 28f0 123e c396 a7bd 4f35 03bd
00000180: 77e3 a4bd 66e8 363d 8406 37bd e467 bfbc
00000190: 3c8d 31bc eb64 4e3d 1e82 913d a885 6cbd
000001a0: b8fe 56bd da00 b83d c6c2 3dbd 7e66 923d
000001b0: df19 f03d b4b5 5d3d d8c4 e3bd 1568 103e
000001c0: 17fe fe3d f3b9 a43d 2e61 613d 4c0c 163e
000001d0: d888 5dbd 68b8 45bd b56f 4dbd 5dd6 1b3d
000001e0: e3c4 4d3d 3ff8 1cbd a28f 39bd 4acd 953c
000001f0: 8b54 263e 17ec b03d c26c 2f3c 85a6 c43d
00000200: c6e6 b5bd e27b cd3c 48f2 2a3d 3dd2 09be
00000210: 836c febd 8aea 993d 5c86 d73c 4f78 f8bd
00000220: 7b1e 61bd fd82 f83d cf59 3f3d 1e99 0bbd
00000230: fb8d c6bd c5eb 70bc 3c52 a83d 4f91 cd3d
00000240: a111 a4bd db3d b9bc eda5 c03a acaf ff3c
00000250: ab3e 213b e220 b73d d442 a43d 8966 5ebd
00000260: d9b0 ce3c ac98 e8bd 7e9a d73d 5b7d e7bd
00000270: de63 7dbd 0225 97bd cc56 1ebd 1e50 123e
00000280: 9b49 03bd 28d1 8bbd 2a59 d13d 7db7 82bd
00000290: 9a60 eabd 10a5 80bd 60fe a0bc e5b4 d5bd
000002a0: f614 283d 97f2 88bd 4b99 983d 4d78 80bd
000002b0: bd8b ee3d 3f65 a4bc acff c83d 67ee e43d
000002c0: 5f26 e2bd 8713 763d 5328 063e e4b2 96bd
000002d0: 184a 8a3c 1f6f b8bd cf99 e33d c3d2 5cbd
000002e0: 66ce a83d 1686 d3bd 87af bbbb 58c2 acbd
000002f0: f5bc 893d d340 743d e923 e7bd 9c35 9b3c
00000300: 0fa5 0d3e e881 f13a dfca 023e 4a4b f13d
00000310: 3239 8f3d 1020 c23d c5cc a5bd aa24 b1bb
00000320: 604f 783c 3ec2 fb3b 4e97 5a3d d4a9 80bb
00000330: 6027 a63d ea73 8c3b 371b af3d 4369 02bb
00000340: 1665 9cbd 9d2f 27bd 12c8 e73c a0d1 92bd
00000350: 11ec 533d 022c fe3d 8531 a5bd e539 e53d
00000360: bcd7 51bd 031f 9fbc ec76 13bd f900 50bd
00000370: 0f10 3cbd a050 c03d 5ae9 d9bd b450 a0b9
00000380: cb64 ce3d 9bc0 ad3d 3b2c 9bbd 4be6 8c3d
00000390: b0f5 09bd 2fca 97bd 572d 9d3d 90e4 ac3d
000003a0: 4b87 9a3d 6b07 77bc 049b 253d 2df3 bc3b
000003b0: ccf3 d0bd be75 e5bd bb0b 88bd 7f0f 063e
000003c0: fb43 c7bc 5412 b3bb f572 e9bc 6e49 b4bd
000003d0: 083e bfbc 7026 9bbd 6171 783d cf1f 753d
000003e0: c6dc 383d 0ef8 a1bd 284a 9c3d 64ab ba3d
000003f0: fb1a 133d 7439 bdbd b102 31bd 645b 9c3d

weight_hh_l0 f4 [256, 64]
0.05083997 0.09075487 0.10771992 0.0588366 -0.027661761 0.08985657 -0.06596379 0.15765254
-0.09456195 -0.10589839 0.08979064 -0.1270285 -0.060333755 0.137098 -0.02056422 0.0032734207
-0.057814367 0.10730316 -0.01083713 0.07223713 -0.056852426 -0.07260048 -0.01736204 -0.023899322
-0.020918341 -0.12998778 0.09815674 0.14865005 0.05377865 0.14563675 -0.02929924 0.121523164
-0.0082259 -0.06948263 -0.03716383 -0.03599002 0.09549122 -0.015096737 -0.06173499 -0.11871992
-0.051613066 -0.022764055 -0.098928444 -0.12109546 0.069306366 -0.065816306 -0.06848807 0.0964995
-0.00854709 -0.0036702498 -0.14970955 0.050833724 0.11787682 0.045908805 0.055641826 0.036319915
-0.00040570612 -0.07391813 0.023554755 -0.07188725 -0.14451052 -0.10595054 -0.15633021 0.052296277
0.056259844 -0.05223341 -0.03020236 -0.09388609 0.05318833 0.059735272 -0.008464576 0.03751532
-0.11591855 0.11248705 -0.040860683 -0.060490474 0.015656073 0.048618693 0.059734073 -0.014506182
-0.08511863 0.15541805 0.036862195 0.12754503 -0.15169887 -0.043106973 -0.021645634 -0.031212829
-0.07559121 -0.08441703 0.012303462 0.013331975 0.018200899 -0.14099635 0.12813205 -0.02410222
0.058360618 0.09307818 0.018063176 0.015427961 0.020773077 -0.032686047 -0.08896573 -0.16579461
-0.0028612695 0.048433963 -0.054001007 0.04096439 -0.028212396 0.049421392 -0.12710668 0.067755
0.014628051 -0.0071706665 0.022152988 0.18288931 0.052281022 0.031386044 0.03098715 -0.11442891
-0.12394473 0.048374087 -0.05448392 -0.110341825 -0.19076885 -0.06572941 -0.14243746 -0.059679825
0.121195406 0.02569233 0.12582128 -0.09712087 0.069981165 0.036949925 0.17366672 0.061564375
0.13886844 0.07753802 0.024810873 0.18408306 0.11834281 0.06638437 0.059956565 -0.029418254
0.08887875 0.020601433 -0.023408975 0.07110031 -0.11274741 -0.0733958 0.04150934 -0.057553124
0.00047856366 0.008053452 0.044530813 -0.029914986 0.15444544 -0.00027150766 -0.0020421888 -0.031042315
-0.09156035 0.07091775 -0.09290357 -0.105783194 -0.025511688 -0.026876144 -0.114147216 -0.13324726
0.046556585 -0.025049299 0.1276203 -0.13900736 -0.062435713 0.047432188 -0.065669194 0.15601596
-0.015792316 0.10238382 -0.1210375 0.08526794 -0.02194858 0.12997043 0.055524763 0.040181935
-0.1975512 0.18538667 0.04880747 -0.059480652 -0.093170874 0.021117954 0.031558067 0.04061201
0.08361778 -0.092899084 -0.056774676 0.012920516 -0.06834117 -0.05826083 -0.011985854 -0.058565658
0.048246883 0.047801204 0.06164389 -0.029790834 0.073842 -0.057883345 0.08009324 -0.03220063
-0.046577908 -0.043809507 0.02714598 0.12778312 -0.014827621 0.08033571 -0.06870995 -0.07808372
-0.07994902 -0.067210615 0.016523996 0.0034655097 0.02651081 0.021592142 0.07916105 -0.107399926
-0.024258958 -0.012253072 -0.11896468 -0.066426545 0.11029795 -0.07072318 -0.02088762 0.044274837
-0.09983273 0.08113329 0.08281163 -0.03651716 0.1202453 0.12115565 -0.040471874 0.058208525
0.0143728815 -0.041039445 -0.046278358 -0.09103044 -0.02429038 -0.07829921 0.051449716 0.05784721
-0.0014118036 -0.08609753 -0.05573276 0.08800012 -0.08075184 -0.04502899 -0.059654355 0.072821006
00000000: 933d 503d b0dd b93d 439c dc3d a6fe 703d
00000010: eb9a e2bc b906 b83d 0618 87bd ab6f 213e
00000020: b2a9 c1bd 41e1 d8bd 28e4 b73d c213 02be
00000030: 8720 77bd 6b63 0c3e 4c76 a8bc e386 563b
00000040: c2ce 6cbd c2c1 db3d 388e 31bc 0ff1 933d
00000050: 17de 68bd 8faf 94bd d63a 8ebc 83c8 c3bc
00000060: f15c abbc 841b 05be 6706 c93d b837 183e
00000070: 0047 5c3d cd21 153e f604 f0bc 23e1 f83d
00000080: edc5 06bc e94c 8ebd 1a39 18bd 456a 13bd
00000090: e790 c33d 4e58 77bc d4dd 7cbd 6e23 f3bd
000000a0: 3968 53bd af7b babc ff9a cabd e600 f8bd
000000b0: 7ff0 8d3d b3ca 86bd 7943 8cbd 88a1 c53d
000000c0: 1809 0cbc 9388 70bb 764d 19be 0637 503d
000000d0: 6769 f13d df0a 3c3d afe8 633d 31c4 143d
000000e0: f4b4 d4b9 6362 97bd e7f5 c03c 9f39 93bd
000000f0: 91fa 13be 99fc d8bd 0715 20be 9f34 563d
00000100: b970 663d b3f2 55bd f16a f7bc 5a47 c0bd
00000110: 02dc 593d f9ac 743d 01af 0abc aaa9 193d
00000120: b466 edbd 9c5f e63d 885d 27bd dcc4 77bd
00000130: 2a41 803c 6524 473d b7ab 743d 56ab 6dbc
00000140: ad52 aebd e925 1f3e d0fc 163d 2a9b 023e
00000150: f356 1bbe f090 30bd 2f52 b1bc 0cb2 ffbc
00000160: 90cf 9abd d6e2 acbd 7694 493c 5b6e 5a3c
00000170: 0d1a 953c 5961 10be 0c35 033e 0572 c5bc
00000180: 8b0b 6f3d c69f be3d 3af9 933c 8fc5 7c3c
00000190: 4d2c aa3c cee1 05bd aa33 b6bd 10c6 29be
000001a0: 2384 3bbb b162 463d 2930 5dbd 47ca 273d
000001b0: af1d e7bc 166e 4a3d 4128 02be 22c3 8a3d
000001c0: 7eaa 6f3c e9f7 eabb 2f7a b53c 5647 3b3e
000001d0: a024 563d a78e 003d c3d8 fd3c b459 eabd
000001e0: bcd6 fdbd e823 463d 882a 5fbd e5fa e1bd
000001f0: e958 43be 249d 86bd 20db 11be d572 74bd
00000200: 4c35 f83d b978 d23c 4bd7 003e 4fe7 c6bd
00000210: 4952 8f3d ce58 173d b0d5 313e ed2a 7c3d
00000220: 8733 0e3e 41cc 9e3d 2c40 cb3c 4580 3c3e
00000230: b75d f23d 87f4 873d 0495 753d 8dfe f0bc
00000240: 1006 b63d 56c4 a83c 2ec4 bfbc 0a9d 913d
00000250: 1de8 e6bd 8a50 96bd b305 2a3d d3bc 6bbd
00000260: bae7 fa39 a0f2 033c f165 363d 4610 f5bc
00000270: f226 1e3e 2459 8eb9 3ed6 05bb 744c febc
00000280: fe83 bbbd 533d 913d 3a44 bebd dca4 d8bd
00000290: e3fd d0bc 5c2b dcbc 04c6 e9bd f871 08be
000002a0: 1eb2 3e3d 3034 cdbc e5ae 023e f257 0ebe
000002b0: 97bc 7fbd 4148 423d 927d 86bd a6c2 1f3e
000002c0: e35e 81bc 9cae d13d 82e2 f7bd f5a0 ae3d
000002d0: 82cd b3bc f816 053e ef6d 633d d095 243d
000002e0: dd4a 4abe 01d6 3d3e 57ea 473d fca1 73bd
000002f0: 5fd0 bebd 8fff ac3c 0843 013d c758 263d
00000300: cc3f ab3d e041 bebd 908c 68bd 92b0 533c
00000310: 75f6 8bbd e8a2 6ebd 5160 44bc 8be2 6fbd
00000320: 869e 453d 32cb 433d 4e7e 7c3d e80b f4bc
00000330: 793a 973d 1617 6dbd ed07 a43d cfe4 03bd
00000340: 7ac8 3ebd 9971 33bd 3f61 de3c 94d9 023e
00000350: 8def 72bc 0c87 a43d cdb7 8cbd 5bea 9fbd
00000360: 50bc a3bd b8a5 89bd 555d 873c 9b1d 633b
00000370: 332d d93c 01e2 b03c 301f a23d 7ef4 dbbd
00000380: b9ba c6bc 1cc1 48bc c1a3 f3bd a40a 88bd
00000390: e4e3 e13d 51d7 90bd 841c abbc 8859 353d
000003a0: 1a75 ccbd 3629 a63d 2599 a93d 0493 15bd
000003b0: 2b43 f63d 7420 f83d d6c5 25bd 106c 6e3d
000003c0: 3c7c 6b3c fa18 28bd 608e 3dbd 2b6e babd
000003d0: 9efc c6bc 565b a0bd f0bc 523d 32f1 6c3d
000003e0: 450c b9ba e753 b0bd 0948 64bd 6839 b43d
000003f0: 3861 a5bd 5170 38bd 2058 74bd 2e23 953d

bias_ih_l0 f4 [256]
0.057936605 0.0042001596 -0.050184887 -0.07394688 0.001353956 -0.1190783 -0.10393257 -0.088453144
-0.0046264776 0.015010645 0.07748237 -0.085598 -0.033612873 0.051672302 0.0116309775 0.001169893
0.059904028 0.11610028 0.07287067 0.04803557 0.12326069 0.028293913 -0.10208186 -0.097897775
-0.122958116 0.09283521 -0.09141024 -0.0703006 0.059978038 0.044070236 0.032202404 0.039561193
0.11437123 -0.04526667 -0.0105829 -0.03476382 0.010394565 -0.07308974 0.10331064 -0.004786138
0.10971697 -0.08002955 0.08746985 -0.025800383 0.06291838 0.098721325 0.025276043 -0.07639911
-0.015878705 0.06742318 -0.09344054 -0.038123302 -0.007439815 0.05263825 -0.001742833 0.031867705
0.008927694 0.13715808 0.05828333 0.023964023 0.026859965 0.06774634 -0.105584115 -0.07268575
-0.04564286 0.09811584 0.099335685 0.10841838 0.15124714 -0.032962404 0.013009931 0.08949971
0.016244324 0.021258714 0.0060349833 -0.021898275 0.0727296 -0.05012359 0.086304456 0.09760095
-0.035352837 -0.026879795 -0.06345327 -0.07864875 0.07905224 -0.027543359 -0.10418173 0.10358822
-0.09404823 -0.044200715 0.08952789 0.05911489 0.09221427 0.06864614 0.015595635 0.119523734
-0.02537309 0.056542464 -0.010721291 -0.018803911 -0.03182677 0.078665115 0.051284935 0.034007873
0.012018962 0.050298333 -0.058225997 0.060891103 0.08204992 -0.08134171 -0.06466088 0.0014266976
-0.12022731 -0.0025602134 -0.042010225 0.03963761 0.120984584 0.004446254 -0.014258203 -0.042110115
-0.054232825 -0.01073311 0.021092465 -0.08179905 -0.061116036 -0.005432677 -0.037170425 -0.03788365
-0.039263446 -0.09326492 0.12243632 -0.08839566 -0.068865076 0.082824595 0.111271955 0.013136702
-0.049407616 0.030016677 0.024584915 0.054736108 -0.10692963 -0.05880944 0.06108708 0.0173792
-0.03906032 0.07570394 -0.04056352 -0.00033367335 -0.021030797 0.07481314 -0.03652476 0.10029905
0.10029488 -0.07541734 -0.066310756 -0.07652167 0.022930827 0.05666993 0.039738324 0.0858843
0.076755255 0.05799601 -0.032901943 0.062211826 -0.04328216 0.027233167 0.050613176 0.01593131
-0.10364498 0.07774399 0.02490351 0.11925146 -0.070474565 -0.045371946 -0.038523536 -0.062633924
-0.03739803 0.012938734 0.092626005 -0.016658094 0.039171875 0.081568584 0.08663662 -0.04761117
-0.027671317 0.08487603 0.10895716 -0.10826113 0.13195862 0.07279946 -0.05060555 -0.047247972
-0.10199103 0.07112299 -0.09985688 0.04533738 0.13540556 0.03379248 0.051393684 0.07477053
-0.108335495 0.012180016 0.094326325 0.03689206 0.058199007 0.078451954 0.033290233 -0.069124594
-0.09519516 0.027315918 0.1043902 0.044063132 -0.09973273 0.099137396 0.048716176 -0.11439935
-0.0560793 -0.11624802 -0.08574357 -0.07788561 0.040354334 0.030293996 -0.029301954 0.116357766
-0.079866126 0.019877372 0.09045484 -0.09890415 -0.007838803 0.011236354 0.119035356 -0.055777755
0.040763356 0.1372593 0.074295044 0.09454127 0.027630521 -0.014070303 0.07848341 -0.11044285
0.039813627 0.04425519 0.12111762 -0.0007057026 0.10733839 -0.09719963 -0.092980236 0.06355173
0.09571629 -0.06394969 -0.02567583 -0.020952772 -0.053602606 0.09735 -0.03639158 -0.040399864
00000000: ef4e 6d3d 7ea1 893b ab8e 4dbd 7671 97bd
00000010: 3977 b13a 53df f3bd 99da d4bd ec26 b5bd
00000020: b599 97bb 35ef 753c 14af 9e3d 014e afbd
00000030: a7ad 09bd 56a6 533d db8f 3e3c 1857 993a
00000040: ed5d 753d fcc5 ed3d 383d 953d f2c0 443d
00000050: 1a70 fc3d a3c8 e73c 4b10 d1bd a17e c8bd
00000060: 77d1 fbbd 6320 be3d 4b35 bbbd c3f9 8fbd
00000070: 88ab 753d fe82 343d abe6 033d eb0a 223d
00000080: 773b ea3d 8b69 39bd e663 2dbc 8264 0ebd
00000090: f74d 2a3c 13b0 95bd 8794 d33d 09d5 9cbb
000000a0: 4ab3 e03d 88e6 a3bd 6523 b33d 535b d3bc
000000b0: 5adb 803d 682e ca3d b40f cf3c 2377 9cbd
000000c0: 0f14 82bc 2a15 8a3d c15d bfbd 2e27 1cbd
000000d0: b1c9 f3bb 359b 573d c56f e4ba b687 023d
000000e0: 7645 123c 2b73 0c3e 80ba 6e3d 3350 c43c
000000f0: 6e09 dc3c 98be 8a3d 7c3c d8bd 44dc 94bd
00000100: 02f4 3abd f5f0 c83d 8270 cb3d 750a de3d
00000110: 88e0 1a3e 9603 07bd 9b27 553c a04b b73d
00000120: d112 853c c126 ae3c 1cc1 c53b 0364 b3bc
00000130: 42f3 943d 654e 4dbd 64c0 b03d 02e3 c73d
00000140: 23ce 10bd 0433 dcbc caf3 81bd 9912 a1bd
00000150: 24e6 a13d 9ca2 e1bc 3b5d d5bd 1026 d43d
00000160: 5c9c c0bd cf0b 35bd 665a b73d 7422 723d
00000170: d6da bc3d 5996 8c3d d684 7f3c dcc8 f43d
00000180: 3adb cfbc 1299 673d 5ba8 2fbc a90a 9abc
00000190: ca5c 02bd 2d1b a13d 2710 523d d74b 0b3d
000001a0: 2eeb 443c a005 4e3d 627e 6ebd f368 793d
000001b0: ca09 a83d 7c96 a6bd ec6c 84bd 0700 bb3a
000001c0: bc39 f6bd 41c9 27bb ea12 2cbd 0c5b 223d
000001d0: c4c6 f73d e2b1 913b 3d9b 69bc a87b 2cbd
000001e0: 3d23 5ebd edd9 2fbc 1bca ac3c 4386 a7bd
000001f0: cf54 7abd 9904 b2bb 0440 18bd e32b 1bbd
00000200: b5d2 20bd ae01 bfbd e5bf fa3d c908 b5bd
00000210: 2209 8dbd f19f a93d 8de2 e33d 523b 573c
00000220: a45f 4abd 89e5 f53c 4e66 c93c f832 603d
00000230: ecfd dabd 2be2 70bd 7236 7a3d d35e 8e3c
00000240: b7fd 1fbd ab0a 9b3d ef25 26bd e1f0 aeb9
00000250: c748 acbc a237 993d fd9a 15bd 9769 cd3d
00000260: 6767 cd3d 6874 9abd efcd 87bd 65b7 9cbd
00000270: 6ed9 bb3c bb1e 683d a7c4 223d 1ce4 af3d
00000280: dc31 9d3d 398d 6d3d 30c4 06bd d4d1 7e3d
00000290: a248 31bd 1718 df3c c34f 4f3d 6182 823c
000002a0: d243 d4bd 3e38 9f3d 7202 cc3c 1c3a f43d
000002b0: f854 90bd efd7 39bd dbca 1dbd 3746 80bd
000002c0: ad2e 19bd fcfc 533c b4b2 bd3d 8e76 88bc
000002d0: b072 203d 6e0d a73d 8a6e b13d ee03 43bd
000002e0: f5ae e2bc 7cd3 ad3d ee24 df3d 03b8 ddbd
000002f0: 2920 073e e217 953d c447 4fbd 1787 41bd
00000300: ace0 d0bd eea8 913d c481 ccbd b0b3 393d
00000310: c1a7 0a3e fc69 0a3d 2f82 523d 4b21 993d
00000320: 00df ddbd b18e 473c 292e c13d 211c 173d
00000330: 1562 6e3d 6bab a03d 575b 083d 3291 8dbd
00000340: aef5 c2bd a2c5 df3c 87ca d53d 8b7b 343d
00000350: ac40 ccbd 8c08 cb3d 9d8a 473d 354a eabd
00000360: 68b3 65bd 7113 eebd 539a afbd 7e82 9fbd
00000370: 964a 253d 1d2b f83c a70a f0bc fb4c ee3d
00000380: da90 a3bd dfd5 a23c 6340 b93d 428e cabd
00000390: 536e 00bc af18 383c cfc8 f33d 3777 64bd
000003a0: 7af7 263d b48d 0c3e 0028 983d da9e c13d
000003b0: 6759 e23c 2187 66bc e9bb a03d dc2f e2bd
000003c0: 9d13 233d ee44 353d 840c f83d e6fe 38ba
000003d0: 3bd4 db3d 9a10 c7bd 6c6c bebd 6927 823d
000003e0: e706 c43d 0ef8 82bd 1e56 d2bc 26a5 abbc
000003f0: 688e 5bbd 705f c73d 560f 15bd 547a 25bd
